Layer (type)                 Output Shape              Param #
=================================================================
conv2d_1 (Conv2D)            (None, 60, 60, 16)        1216
_________________________________________________________________
max_pooling2d_1 (MaxPooling2 (None, 30, 30, 16)        0
_________________________________________________________________
conv2d_2 (Conv2D)            (None, 28, 28, 32)        4640
_________________________________________________________________
dropout_1 (Dropout)          (None, 28, 28, 32)        0
_________________________________________________________________
max_pooling2d_2 (MaxPooling2 (None, 14, 14, 32)        0
_________________________________________________________________
conv2d_3 (Conv2D)            (None, 12, 12, 32)        9248
_________________________________________________________________
max_pooling2d_3 (MaxPooling2 (None, 6, 6, 32)          0
_________________________________________________________________
conv2d_4 (Conv2D)            (None, 5, 5, 64)          8256
_________________________________________________________________
max_pooling2d_4 (MaxPooling2 (None, 3, 3, 64)          0
_________________________________________________________________
flatten_1 (Flatten)          (None, 576)               0
_________________________________________________________________
dense_1 (Dense)              (None, 128)               73856
_________________________________________________________________
dropout_2 (Dropout)          (None, 128)               0
_________________________________________________________________
dense_2 (Dense)              (None, 5)                 645
=================================================================
Total params: 97,861
Trainable params: 97,861
Non-trainable params: 0
_________________________________________________________________
Found 13000 images belonging to 5 classes.
Found 2000 images belonging to 5 classes.